src/tutorials/uva/t2.pt (torch, 1537 bytes, 3 tensors)

linear1.weight f4 [4, 2]
0	0xbf454301	-0.77055365
1	0xbebaeddc	-0.36509597
2	0xc013c40c	-2.3088408
3	0xc01145d5	-2.2698872
4	0x404e808e	3.2265964
5	0xc0120a6e	-2.2818866
6	0x4016e0c2	2.3574681
7	0xc04f448a	-3.2385583

linear1.bias f4 [4]
0	0x3f56f370	0.83965206
1	0x3ef6a478	0.48172355
2	0x3f602ec9	0.8757139
3	0xbf66de1f	-0.9018268

linear2.weight f4 [1, 4]
0	0x3f80c7e1	1.0060998
1	0xc0597d62	-3.3982778
2	0xc0850f6e	-4.1581335
3	0x4088ce8d	4.2752137
